materials/models/FNN/fnn_state_dict.pt (torch, 109155 bytes, 4 tensors)

net.0.weight f4 [256, 100]
0	0xbccbcf29	-0.024879055
1	0x3bc99210	0.006151445
2	0x3dba09dd	0.090839125
3	0x3d2eebba	0.042705275
4	0xbce7ca19	-0.02829461
5	0xbd4d25bf	-0.050084826
6	0x3ddb4072	0.10705651
7	0x3d940399	0.07227249
8	0xbe1b65dc	-0.15175575
9	0xb8b2e8c3	-8.531057e-05
10	0x3db9abdb	0.09065982
11	0x3dafe1dc	0.08588001
12	0x3dd4825d	0.10376427
13	0xbd7c0151	-0.061524693
14	0x3da76cb1	0.08175028
15	0xbd60e72b	-0.05490796
16	0x3e4c9745	0.1997958
17	0x3d276f7b	0.0408778
18	0xbddf90f3	-0.10916319
19	0xbc351662	-0.0110527
20	0x3db78d0f	0.08962452
21	0x3db56f91	0.0885917
22	0x3e026ca9	0.12736763
23	0x3da3c15a	0.07995863
24	0xbd162cfa	-0.036663987
25	0x3d0563f9	0.032566044
26	0xbdb264a6	-0.087106034
27	0x3d3202b5	0.043459613
28	0xbb8e3f29	-0.0043410254
29	0xbd99528b	-0.07486447
30	0xbd152ed1	-0.0364216
31	0xbd90e498	-0.07074851
32	0x3e1ae861	0.15127708
33	0x3de12cda	0.10994883
34	0x3d5cb4a4	0.05388321
35	0x3ca4fa78	0.020138964
36	0xbb7eab1e	-0.0038859318
37	0xbdb456fa	-0.08805652
38	0x3def2b84	0.11678222
39	0xbd856bb0	-0.065146804
40	0xb98a5dbc	-0.0002639125
41	0xbd8f6161	-0.070009954
42	0x3de142c1	0.109990604
43	0x3d82ffc0	0.06396437
44	0xbd4529c9	-0.048135553
45	0xbdc8a886	-0.09797768
46	0xbd7b8b8d	-0.061412383
47	0xbbec6d5c	-0.007215185
48	0x3e0eed36	0.13957676
49	0xbd9452c0	-0.07242346
50	0xbbdf76ee	-0.0068195974
51	0xbd019b85	-0.031642456
52	0xbcb3d966	-0.02195425
53	0x3bb57189	0.005537216
54	0xbdeb74cd	-0.11496887
55	0x3d9a34be	0.07529591
56	0xbd2cdb59	-0.042201374
57	0x3dbbef9e	0.09176563
58	0x3db4a8d6	0.088212654
59	0xbc60024a	-0.013672421
60	0x3ccbaf8e	0.024863984
61	0x3d0d3465	0.034473795
62	0x3d852914	0.06501976
63	0xbdcdc7be	-0.100478634
64	0x3d4f4a9b	0.05060826
65	0x3d6cd8bc	0.05782388
66	0x3d187e77	0.03722998
67	0x3d8f1b86	0.069876716
68	0xbcbb6f95	-0.022880355
69	0x3adc32c3	0.0016799796
70	0xbd2ac896	-0.0416952
71	0xbd00820d	-0.031374026
72	0xbca5a688	-0.02022101
73	0x3d73c980	0.059518337
74	0xbd332465	-0.04373588
75	0x3bc10411	0.0058903773
76	0x3c3ad45c	0.0114031695
77	0xbe12a059	-0.1431898
78	0xbd18a086	-0.037262462
79	0x3d14e35b	0.036349636
80	0xbd9ad958	-0.07560986
81	0x3c925cb1	0.017866464
82	0x3dc1720b	0.0944558
83	0x3da4b859	0.08042974
84	0xbdd75ae3	-0.10515382
85	0xbd84bec3	-0.064816974
86	0x3dd5ada5	0.10433511
87	0x3ca7bfef	0.020477263
88	0xbc2bf54f	-0.010495498
89	0x3cff0fa1	0.031135382
90	0x3c3d4826	0.011552846
91	0x3da4e6ca	0.08051832
92	0x3e61412d	0.21997519
93	0xbd55f2fe	-0.05223369
94	0xbdbdd104	-0.09268382
95	0x3c82c4d3	0.015962994
96	0xbcb9f456	-0.022699516
97	0x3d23c241	0.039980177
98	0xbdd1f4ba	-0.10251756
99	0x3da6df3c	0.08148047
100	0xbe03a10a	-0.128544
101	0x3d4ff453	0.050770115
102	0xbc7c9e4a	-0.015418598
103	0xbd19d962	-0.037560828
104	0xbc074736	-0.008256724
105	0x3d07f3bf	0.03319144
106	0xbde6ee0d	-0.11275873
107	0xbcc76a58	-0.0243427
108	0xbdef6703	-0.1168957
109	0xbd08a85e	-0.033363692
110	0xbc9a9301	-0.018868925
111	0xbddfadb3	-0.10921802
112	0xbd49eeae	-0.04929989
113	0x3e3089cc	0.17240065
114	0x3b61909d	0.0034418472
115	0x3d4d27f7	0.05008694
116	0x3d998415	0.07495896
117	0xbdcf63a9	-0.101264305
118	0xbd660534	-0.056157306
119	0xbdde80bf	-0.108644
120	0xbda984df	-0.08277296
121	0xbd3736c3	-0.04472996
122	0x3e17247b	0.1476001
123	0x3d8578d2	0.06517185
124	0x3e111dbd	0.141715
125	0x3c96b777	0.01839803
126	0xbc8d95b2	-0.017283294
127	0x3d71bfa5	0.059020657
128	0xbe39545e	-0.1809859
129	0xbd843a55	-0.064564385
130	0xbcd4482c	-0.02591332
131	0xbd730b1a	-0.05933676
132	0x3d8458f9	0.06462283
133	0xbe63fa2e	-0.22263405
134	0xbc6a2e25	-0.014293228
135	0xbca98fe1	-0.02069849
136	0xbe275105	-0.163395
137	0x3bd7eeef	0.0065897624
138	0x3d0fb5ff	0.035085674
139	0xbe4f6269	-0.20252384
140	0x3d8c63d2	0.06854977
141	0xbd6693f3	-0.05629344
142	0x3d97b71d	0.07407973
143	0x3db61c72	0.08892144
144	0xbe1d8c96	-0.1538566
145	0xbc72a72d	-0.014810366
146	0xbd1632a9	-0.036669407
147	0xbd37725e	-0.044786803
148	0x3e1821c7	0.14856635
149	0xbd461803	-0.048362743
150	0xbd5fb19f	-0.054612752
151	0x3e0f34da	0.13985005
152	0xbdd7f644	-0.10545018
153	0x3d818d1c	0.063257426
154	0xbd120ef1	-0.03565878
155	0xbd4428d4	-0.0478905
156	0xbdcbac42	-0.09944965
157	0x3becde6d	0.0072286637
158	0x3c8cf973	0.01720879
159	0xbd73f4f6	-0.059559785
160	0x3d398450	0.0452922
161	0xbb86a386	-0.004108849
162	0xbc95bf78	-0.018279776
163	0x3cb7b713	0.022426164
164	0x3db1547d	0.08658693
165	0xbd3f8606	-0.046758674
166	0x3d23420d	0.039857913
167	0x3caeaa32	0.02132139
168	0x3bb95766	0.0056561707
169	0xbde4fbdb	-0.1118085
170	0xbbe8c505	-0.0071035647
171	0x3c8a2c34	0.01686678
172	0xbcd33dc4	-0.025786288
173	0xbc5f5b80	-0.013632655
174	0xbe110a50	-0.1416409
175	0xbdaafee0	-0.08349395
176	0x3dadaca6	0.08480196
177	0xbd54f5c3	-0.05199219
178	0x3bc4db17	0.006007563
179	0x3df3053e	0.11866234
180	0xbde49989	-0.11162097
181	0xbe4a3bc6	-0.19749364
182	0x3d4a13ac	0.049335167
183	0x3cd4b3c8	0.025964633
184	0xbcf27634	-0.02959738
185	0xbda271e1	-0.07931877
186	0xbdb43637	-0.08799403
187	0x3dc06792	0.093947545
188	0x3e3174a8	0.17329657
189	0x3dce844c	0.100838274
190	0x3c353704	0.01106048
191	0x3dc522cc	0.096257776
192	0xbe4620fb	-0.19348519
193	0xbd7228ea	-0.05912105
194	0xbd25f20b	-0.040514033
195	0xbe314b35	-0.17313845
196	0xbe7fa1aa	-0.24964014
197	0xbd8b7e7f	-0.068112366
198	0x3d7c6fb4	0.061629966
199	0xbd222a9f	-0.039591428
200	0xbdcd222d	-0.10016284
201	0x3d2e020d	0.042482425
202	0x3c3139be	0.0108169895
203	0xbde72baa	-0.11287625
204	0xbd2e392a	-0.042534985
205	0xbd3b73f8	-0.045764893
206	0xbe2a936d	-0.16657801
207	0x3dfc625f	0.1232345
208	0xbdac4493	-0.08411517
209	0xbbe0bd77	-0.0068585235
210	0x3d6c3692	0.05766923
211	0xbe487fc9	-0.19579996
212	0x3cd70f1f	0.026252327
213	0x3d648d3f	0.055798765
214	0xbdbcf6ab	-0.09226736
215	0xbcc85a1d	-0.024457032
216	0xbd218540	-0.039433718
217	0x3ceee8d8	0.029163763
218	0x3dda83b8	0.106696546
219	0xbc8bfff6	-0.017089825
220	0xbd321674	-0.043478444
221	0x3c007292	0.007839816
222	0xbcdaeac9	-0.026723282
223	0xbdb37232	-0.087620154
224	0x3ca0d2bb	0.019631734
225	0x3de33c25	0.11095456
226	0xbdcd63d1	-0.10028804
227	0x3d898550	0.067148805
228	0x38b29376	8.515168e-05
229	0xbdc088e5	-0.094011106
230	0xbc39cc7c	-0.011340257
231	0xbd9f4943	-0.077776454
232	0x3dce28e8	0.10066396
233	0xbdf3734a	-0.11887224
234	0xbc9e118e	-0.01929548
235	0x3e264039	0.16235436
236	0xbd4f51d6	-0.050615154
237	0x3dbcb4cb	0.09214171
238	0x3dc75d64	0.0973461
239	0xbd9f4b15	-0.07777993
240	0xbd75d34a	-0.060015954
241	0xbda31561	-0.07963062
242	0xbd97e575	-0.07416812
243	0x3dc243e1	0.09485603
244	0xbcaafa99	-0.020871447
245	0x3d2b39c0	0.04180312
246	0x3d450750	0.048102677
247	0xbd0318e3	-0.032006156
248	0xbbfc3feb	-0.0076980493
249	0xbda5df1f	-0.080991976
250	0xbd1e0f1f	-0.03858864
251	0x3e055507	0.13020717
252	0xbd4cce4d	-0.05000143
253	0x3d9141cb	0.07092627
254	0x3c46a31b	0.012123848
255	0xbd2ff831	-0.042961303

net.0.bias f4 [256]
0	0x3d17f6a6	0.037100457
1	0x3daed476	0.085366175
2	0x38e661ab	0.00010985447
3	0xbc23e45d	-0.0100031765
4	0x3d14aa47	0.0362952
5	0xbda88280	-0.08228016
6	0x3c8e3378	0.017358527
7	0x3c6a16cc	0.014287662
8	0x39d4c4cd	0.0004058242
9	0x3c92454c	0.017855309
10	0x3d813ec2	0.06310798
11	0xbd7b9e61	-0.06143034
12	0xbda11767	-0.07865792
13	0x3d08fa9c	0.033442125
14	0xbd8b0af4	-0.067891985
15	0x3d8bfbdf	0.0683515
16	0x3c5fc724	0.013658319
17	0x3d6eccea	0.05830089
18	0x3d269d02	0.040677078
19	0xbcf600b0	-0.030029625
20	0xbd447cdd	-0.04797064
21	0xbd461808	-0.04836276
22	0xbcfc4112	-0.030792747
23	0x3cff05ac	0.031130634
24	0x3db30df3	0.08742895
25	0x3d9685df	0.07349753
26	0xbda75cba	-0.08171983
27	0xbda55830	-0.08073461
28	0x3d62b3b8	0.055347174
29	0x3ca382ea	0.019959886
30	0xbb0b3467	-0.002124095
31	0xbd86522e	-0.06558643
32	0x3d718445	0.058964033
33	0x3d35c7b4	0.044379905
34	0xbbae7da9	-0.0053250385
35	0x3d45d6c2	0.048300512
36	0x3d615203	0.055009853
37	0x3d30fc93	0.043209624
38	0xbd75f327	-0.06004634
39	0x3dbaeb58	0.091269195
40	0x3d722416	0.059116445
41	0xbc585433	-0.013203668
42	0xbbff662f	-0.0077941637
43	0xbdcd9e57	-0.100399666
44	0x3d11e6d0	0.03562051
45	0xbd997537	-0.0749306
46	0xbcd07fd0	-0.02545157
47	0xbd5d6897	-0.054054823
48	0x3dc78227	0.097416215
49	0x3dd9ac47	0.106285624
50	0x3d1804ea	0.03711406
51	0x3b1b3867	0.0023684741
52	0x3db31b3b	0.08745428
53	0x3dc49365	0.09598426
54	0x3d22ce24	0.039747372
55	0x3cc686db	0.024234226
56	0x3db51a50	0.08842909
57	0x3cb88e20	0.022528708
58	0xbdb2909b	-0.087189876
59	0x3dabc0f7	0.083864145
60	0xbd69d0bd	-0.057083834
61	0x3da1c026	0.078979775
62	0x3da37b5b	0.079825126
63	0xbd9a8b24	-0.0754607
64	0xbd6aa9bb	-0.057290774
65	0x3dbedda0	0.09319615
66	0x3d96ef9e	0.07369922
67	0xbdad681c	-0.08467123
68	0xbcc16d64	-0.023611732
69	0x3d12215c	0.035676345
70	0x3c490027	0.012268103
71	0xbd3dd723	-0.04634775
72	0x3bd1870c	0.0063942727
73	0xbd0fe57c	-0.035130963
74	0xbd3bae3b	-0.045820456
75	0x3d0d7b7a	0.034541585
76	0xbdb94fcf	-0.090484254
77	0xbcdcca7e	-0.026952025
78	0xbd90c3b2	-0.07068576
79	0xbda16d22	-0.078821436
80	0xbdb3301b	-0.0874941
81	0xbd813b1d	-0.06310103
82	0x3d9a9c45	0.07549337
83	0x3bd7661a	0.0065734508
84	0xbc6ef501	-0.014584781
85	0x3db82dbf	0.089931004
86	0x3cb4476a	0.02200671
87	0x3d7aa8b8	0.06119606
88	0xbce44aa0	-0.027867615
89	0xbda7c710	-0.08192265
90	0x3b6eb39d	0.0036422976
91	0xbd53f4f0	-0.051747262
92	0xbd3d7477	-0.046253648
93	0xbd9e2600	-0.07722092
94	0x3d79c887	0.060982253
95	0xbda5c999	-0.08095092
96	0x3d6de8d2	0.058083363
97	0x3cb8ce9a	0.022559453
98	0x3d774b6a	0.060374655
99	0xbc057361	-0.008145184
100	0xbddfef74	-0.10934344
101	0x3d04da42	0.03243471
102	0x3dc47562	0.095927015
103	0xbddabdde	-0.106807455
104	0xbc0bbe36	-0.008529237
105	0x3c91453c	0.017733209
106	0xbd9778a0	-0.07396054
107	0xbc90d970	-0.017681807
108	0xbdc7789b	-0.097398005
109	0xbd450e91	-0.048109595
110	0xbdbc1265	-0.09183196
111	0x3d36de9a	0.044645883
112	0xbdb0382d	-0.08604465
113	0x3c913dfb	0.01772975
114	0xbc16b6f0	-0.009198889
115	0xb92ff6a2	-0.00016781178
116	0xbcd16aa9	-0.025563555
117	0xbdce8efb	-0.10085865
118	0x3d9d66a7	0.07685595
119	0x3d0318fb	0.032006245
120	0x3d665839	0.05623648
121	0x3d94af62	0.07260014
122	0xbd0a192a	-0.033715405
123	0x3d6f5b38	0.058436602
124	0x3d228ff8	0.03968808
125	0xbc8b5884	-0.017009981
126	0xbdbca6d4	-0.092115074
127	0x3d57c51d	0.052678216
128	0x3c41f239	0.011837536
129	0x3c47f9e9	0.012205579
130	0x3d0c0846	0.034187578
131	0x3cbb9a95	0.022900859
132	0x3cbcb98e	0.023037698
133	0xbd7dc685	-0.0619569
134	0xbc826351	-0.015916498
135	0x3dc2de01	0.09515
136	0xbca15f92	-0.019698892
137	0xbd9029f0	-0.07039249
138	0xbdd499c5	-0.10380892
139	0xbd8d32e0	-0.06894469
140	0xbcad843c	-0.021181218
141	0x3dcb0628	0.099132836
142	0xbbb8a715	-0.005635152
143	0x3d02d3a1	0.031940106
144	0xbcfb4b0d	-0.030675435
145	0xbcb2b707	-0.02181579
146	0xbd61b450	-0.0551036
147	0x3d4cbcae	0.049984626
148	0x3ca69d6b	0.020338735
149	0xbd6b8f03	-0.057509433
150	0x3d5259cb	0.051355164
151	0x3d957f44	0.072996646
152	0x3cf12b97	0.02943973
153	0x3ce97eb3	0.028502798
154	0x3c9d37d7	0.019191666
155	0xbd26b4aa	-0.04069964
156	0x3d512f70	0.05107063
157	0x3de30092	0.11084093
158	0xbd17a889	-0.037025962
159	0x3d8e0735	0.069349684
160	0x3b050849	0.0020299128
161	0xbd9645f3	-0.073375605
162	0xbd2e3153	-0.042527508
163	0x3d340f7f	0.04396009
164	0xbdd583b7	-0.10425513
165	0xbdce857e	-0.10084055
166	0xbd633958	-0.05547461
167	0x3d29f23f	0.04149079
168	0xbd7fa855	-0.062416393
169	0x3c0f476a	0.008745054
170	0x3d992f75	0.07479755
171	0xbbad8873	-0.005295807
172	0xbc9648e9	-0.018345313
173	0xbbeeb07e	-0.007284223
174	0xbd724b0b	-0.059153598
175	0xbda3327d	-0.07968614
176	0xbbb7c005	-0.0056076073
177	0x3df08f88	0.117461264
178	0x3cb7b531	0.022425266
179	0xbd968640	-0.07349825
180	0x3c9add81	0.01890445
181	0x3c0fb389	0.008770832
182	0xbdb4eb7b	-0.08833977
183	0xbd3466ae	-0.044043235
184	0x3d8d5d62	0.06902577
185	0xbdc0f9c7	-0.09422641
186	0x3c803079	0.015648114
187	0xbdaa89b0	-0.08327043
188	0xbda89283	-0.0823107
189	0xbcacfaf3	-0.021115756
190	0x3c2faa8f	0.010721817
191	0x3d28932f	0.04115599
192	0x3db491af	0.088168494
193	0xbd27ed2c	-0.04099767
194	0xbb904cac	-0.0044036712
195	0x3cb7191d	0.022350842
196	0xbcb5e7f3	-0.022205329
197	0x3c87746d	0.016535008
198	0x3db18e5f	0.08669733
199	0xbd5eb966	-0.05437603
200	0xbdaaa5f7	-0.083324365
201	0xbd11a8f0	-0.035561502
202	0x3d8a3efe	0.06750296
203	0x3d64f0a3	0.05589355
204	0xbd843a74	-0.064564615
205	0x3dad1b54	0.08452478
206	0x3d047a17	0.032342996
207	0xbda8a22b	-0.08234056
208	0xbd96d862	-0.073654905
209	0x3dd7420a	0.10510643
210	0xbdb88b03	-0.090108894
211	0x3daf3c98	0.08556479
212	0xbd54e440	-0.05197549
213	0xbac95db2	-0.0015363006
214	0x3d845dbd	0.06463192
215	0xbc0a7186	-0.008449918
216	0xbcdd70dd	-0.027031356
217	0x3cd36d83	0.025809055
218	0xbd15d8d0	-0.03658372
219	0xbca16303	-0.019700533
220	0x3ca16388	0.01970078
221	0x3d3baf79	0.04582164
222	0x3db98e9f	0.09060406
223	0xbb536f56	-0.0032262406
224	0xbd9035c3	-0.07041504
225	0x3cfffd58	0.031248733
226	0x3db7e4e8	0.08979207
227	0xbc61ca93	-0.013781208
228	0x3c96f193	0.018425738
229	0xbd930e82	-0.071805015
230	0x3d8ada9c	0.06779978
231	0xbd6950f4	-0.05696197
232	0xbdb321c1	-0.087466724
233	0xbd76d071	-0.06025738
234	0xbb88d013	-0.004175195
235	0xbd9d39bb	-0.07677027
236	0x3d9dcb04	0.07704738
237	0x3b947b7a	0.004531321
238	0x3d341c0f	0.04397207
239	0xbdb555ff	-0.08854293
240	0x3d0765b5	0.03305598
241	0xbd471de2	-0.048612483
242	0xbd2be87a	-0.041969754
243	0xbd137272	-0.035997815
244	0xbc5350b3	-0.012897658
245	0x3d34aef0	0.044112146
246	0x3cb705e7	0.022341682
247	0xbd671f11	-0.05642611
248	0x3ddea089	0.108704634
249	0xbdbceb5d	-0.092245795
250	0xbd83ce07	-0.06435781
251	0xbd66ae74	-0.056318715
252	0xbd0de38b	-0.03464083
253	0xbd848693	-0.064709805
254	0xbdb0b6b0	-0.08628595
255	0x3cc8f830	0.024532408

net.3.weight f4 [3, 256]
0	0x3d96e1a6	0.07367258
1	0x3dde38e0	0.10850692
2	0x3dba341d	0.09091971
3	0xbd7df595	-0.062001783
4	0x3e00117b	0.12506668
5	0xbcd3d5bc	-0.025858752
6	0x3ca045e4	0.019564576
7	0x3d94f3fa	0.07273097
8	0x3d55439a	0.052066423
9	0xbdcf33cd	-0.10117302
10	0x3df6371e	0.120222315
11	0xbca74127	-0.02041681
12	0xbd38bcae	-0.045101814
13	0x3d02c6ca	0.03192786
14	0x3dcae7bc	0.09907481
15	0xbb0b4135	-0.0021248583
16	0x3ca87f07	0.020568384
17	0x3d919e7f	0.07110309
18	0xbcacd7d9	-0.021099018
19	0x3dcb822b	0.09936937
20	0xbd006c64	-0.03135337
21	0x3d90913f	0.070589535
22	0xbd5104b8	-0.05102989
23	0xbd089bd1	-0.033351723
24	0xbcd83279	-0.026391255
25	0xbcaa5af4	-0.020795323
26	0xbd26e8bc	-0.040749297
27	0x3d4116da	0.047140934
28	0x3dd6efa8	0.104949296
29	0xbdfda125	-0.123842515
30	0x3d1aa99a	0.0377594
31	0xbd15b2ae	-0.036547355
32	0xbb6e8795	-0.003639673
33	0x3d8dc579	0.069224305
34	0xbdf31842	-0.11869861
35	0x3dab0a0b	0.08351525
36	0xbd975312	-0.07388891
37	0x3d68e0c0	0.056854963
38	0xbcef0e62	-0.029181663
39	0x3df8127e	0.12112902
40	0xbcd907ac	-0.026492916
41	0xbda14719	-0.07874889
42	0x3df3ba60	0.119007826
43	0x3d455bc1	0.048183206
44	0xbd0aa3ee	-0.03384774
45	0x3c015c90	0.007895604
46	0x3cc6e31e	0.02427822
47	0xbce8bb3c	-0.028409593
48	0x3e1d0201	0.15332796
49	0x3d56fd27	0.05248752
50	0xbd2bc6a3	-0.04193748
51	0x3cbc21c8	0.022965327
52	0x3a8a6b00	0.0010560453
53	0x3dc5f7ff	0.09666442
54	0x3d73cd5a	0.05952201
55	0x3d847ca0	0.06469083
56	0x3c017b15	0.00790288
57	0xbc75d485	-0.015004282
58	0xbcaf64b8	-0.021410331
59	0xbb879bbb	-0.0041384376
60	0xbc66b868	-0.014082052
61	0xbcace5f4	-0.021105744
62	0xbbb458db	-0.0055037565
63	0xbbf7bfd1	-0.007560708
64	0xbd016b05	-0.031596202
65	0x3d61c7f0	0.055122316
66	0x3d20b9e6	0.039239787
67	0x3d833113	0.064058445
68	0x3defbf0e	0.11706363
69	0xbc377caf	-0.0111991605
70	0xb9e83800	-0.00044292212
71	0xbe0a158f	-0.13484786
72	0x3de52489	0.11188609
73	0xbd860805	-0.06544498
74	0xbca9515b	-0.020668676
75	0x3dc215e9	0.09476835
76	0x3c619c90	0.013770238
77	0x3d786c87	0.060650375
78	0xbd68af4d	-0.056807805
79	0x3ccef19c	0.025261693
80	0xbd16d3ca	-0.03682307
81	0x3de44814	0.1114656
82	0x3e3aa45d	0.18226762
83	0x3d01a354	0.031649902
84	0x3df6841b	0.12036916
85	0x3d2a7d17	0.0416232
86	0x3d87961d	0.06620429
87	0xbd13d342	-0.036090143
88	0xbdd97914	-0.10618797
89	0x3c8861d0	0.016648203
90	0xbcb0313d	-0.021507854
91	0x3d407ea7	0.046995785
92	0x3d19ea8b	0.037577193
93	0xbbbc0bb3	-0.0057386993
94	0x3dae2f40	0.08505106
95	0x3c642931	0.013925836
96	0x3d669209	0.056291614
97	0xbdd710e1	-0.10501266
98	0x3dc86915	0.09785668
99	0x3df2ea1a	0.118610576
100	0x3d3439eb	0.044000547
101	0xbddee393	-0.1088325
102	0xbd396e3f	-0.045271154
103	0xbd23ce8a	-0.039991893
104	0x3d499c77	0.049221482
105	0xbd2fcdea	-0.042920984
106	0x3cf80f58	0.030280754
107	0xbd35c2a4	-0.044375077
108	0xbb0079a0	-0.0019603744
109	0x3e0ae07e	0.135622
110	0x3d951b5e	0.072806105
111	0xba64fab3	-0.0008734867
112	0xbc8447dc	-0.016147546
113	0xbddd8f03	-0.10818293
114	0x3dcf6247	0.10126167
115	0xbdea5b2e	-0.114431724
116	0x3cf57fc2	0.029968146
117	0xbcf8a836	-0.030353647
118	0xbd94e321	-0.07269884
119	0xbe12d64d	-0.14339562
120	0x3d9c79db	0.076404296
121	0x3c3b081e	0.0114155095
122	0x3d652909	0.055947337
123	0xbd0eab0a	-0.034831084
124	0x3d2104d9	0.039311264
125	0xbd0e67a5	-0.034766812
126	0x3d85be50	0.0653044
127	0x3d5b69c8	0.053567678
128	0xbde9f1a4	-0.114230424
129	0x3bbb1c98	0.0057101957
130	0x3d4e9afb	0.05044077
131	0xbd16df61	-0.036834124
132	0x3c2ae3e8	0.010430314
133	0x3e003c92	0.12523106
134	0xbd8a6d70	-0.06759155
135	0xbda1b822	-0.07896449
136	0x3d68d15c	0.056840286
137	0xbc60f2b0	-0.013729736
138	0xbce0dc32	-0.027448747
139	0x3e60fef2	0.21972254
140	0x3d5f73d1	0.05455381
141	0xbd2d9b54	-0.04238446
142	0x3d59cbf6	0.053173028
143	0xbbd97e95	-0.006637404
144	0x3b5fd820	0.003415592
145	0xbd4ffb6a	-0.050776877
146	0xbd7868a4	-0.060646668
147	0xbcdbdc3b	-0.026838413
148	0x3e237260	0.159616
149	0xbd7d7960	-0.06188333
150	0x3d86f337	0.06589358
151	0xbd5b04eb	-0.053471487
152	0xbdbf567d	-0.09342668
153	0x3d02e96f	0.0319609
154	0xbd3ebe51	-0.04656822
155	0xbc091c7a	-0.008368606
156	0x3d3ed220	0.04658711
157	0xbb642627	-0.003481278
158	0x3bc98355	0.006149689
159	0x3da6a784	0.0813742
160	0xbd3a57e0	-0.04549396
161	0xbcfecf12	-0.031104598
162	0xbca1d451	-0.01975456
163	0xbdb6807f	-0.089112274
164	0xbca0887a	-0.019596327
165	0xbd0cd3a6	-0.03438153
166	0xbdd46192	-0.103701726
167	0xbd1cb58f	-0.038259085
168	0x3ccb175a	0.024791408
169	0x3d960df0	0.07326877
170	0x3d343b02	0.044001587
171	0x3bae9629	0.005327959
172	0x3d08e077	0.03341719
173	0x3e3e97df	0.18612622
174	0x3d5a429c	0.05328618
175	0x3d881aad	0.06645713
176	0x3ca169f1	0.019703837
177	0x3dc29d2b	0.09502634
178	0x3b7695b9	0.0037625863
179	0x3c7cf23c	0.015438613
180	0xbdd5ebed	-0.1044539
181	0x3d9555ba	0.07291742
182	0x3c1f07d0	0.0097064525
183	0x3e3a9486	0.1822072
184	0x3d8a2e76	0.06747143
185	0xbd885576	-0.066569254
186	0xbdb2518c	-0.0870696
187	0x3d1772fa	0.036974885
188	0xbd2cee4c	-0.042219445
189	0x3c117cd8	0.008879863
190	0xbd134550	-0.035954773
191	0x3d154837	0.036445823
192	0xbc3c7824	-0.011503253
193	0xbc2766e1	-0.010217399
194	0x3da11a44	0.07866338
195	0x3d2315f9	0.039815877
196	0x3d2d60c9	0.04232863
197	0x3cfad840	0.030620694
198	0xbc35f16e	-0.011104925
199	0xbde938bc	-0.11387774
200	0x3d756c4a	0.059917726
201	0x3d1e9278	0.038713902
202	0x3be0e8a5	0.006863671
203	0x3c980df0	0.018561333
204	0x3c8e95f6	0.017405491
205	0xbcf75faf	-0.030196993
206	0xbcd171e4	-0.025567003
207	0x3d148283	0.03625728
208	0x3d4e9283	0.050432693
209	0x3e0a068c	0.1347906
210	0xbc83e301	-0.016099455
211	0x3b006b40	0.0019595176
212	0xbc0b12d0	-0.008488372
213	0x3ced8577	0.028994305
214	0x3e105372	0.14094332
215	0x3d23157b	0.039815407
216	0xbd2b6d40	-0.041852236
217	0xbc84ae12	-0.016196284
218	0xbd1f6299	-0.03891239
219	0x3cbe396e	0.023220744
220	0xbdcd32f3	-0.100194834
221	0xba8bf8d9	-0.0010679021
222	0xbdf8fee1	-0.12157989
223	0xbdb7d5fe	-0.08976363
224	0x3d2722d3	0.040804695
225	0xbd881265	-0.066441335
226	0xbc1372f8	-0.008999579
227	0x3d0c3897	0.034233656
228	0xbc4b9f08	-0.012428053
229	0xb8843e64	-6.305872e-05
230	0x3cd5a229	0.0260783
231	0x3dc4544e	0.09586392
232	0xbd2acd8f	-0.041699942
233	0xbcdb313a	-0.026756871
234	0xbbd275ac	-0.006422719
235	0x3db18c3a	0.08669324
236	0x3d731e7b	0.05935524
237	0x3c341a55	0.010992606
238	0xbd1a4cda	-0.037670948
239	0xbd549e2a	-0.05190865
240	0xbb85f70d	-0.0040882886
241	0xbd4d8517	-0.050175752
242	0x3d1e689a	0.038673975
243	0xbd31015a	-0.04321418
244	0x3b456b40	0.003012374
245	0xbdbe7c2f	-0.0930103
246	0xbe03cdff	-0.1287155
247	0xbdf7d54c	-0.1210123
248	0x3d83477e	0.064101204
249	0x3d4aedae	0.049543075
250	0x3aba6bcf	0.0014222803
251	0x3d837aad	0.06419883
252	0xbca0bfcf	-0.019622711
253	0x3d8021b7	0.062564306
254	0xbd897ee7	-0.06713658
255	0xbb633e99	-0.0034674762

net.3.bias f4 [3]
0	0xbcad2caf	-0.02113947
1	0x3d40f74c	0.04711084
2	0x3cc75ac8	0.02433528
